ML/model_ann.tflite (tflite, 3780 bytes, 8 tensors)

sequential_1/dense_7/BiasAdd/ReadVariableOp f4 [3]
0	0x3d2b9cdc	0.04189764
1	0x3e6ec710	0.23318124
2	0xbe2ec65c	-0.17067856

sequential_1/dense_6/BiasAdd/ReadVariableOp f4 [8]
0	0xbd0f9741	-0.035056356
1	0x3cc818cc	0.024425887
2	0xbc4a4e19	-0.0123477215
3	0x3d36fa84	0.044672504
4	0xbd90d6da	-0.0707223
5	0x3ead9d2a	0.3390897
6	0x3cc71b49	0.024305003
7	0xbd564e4d	-0.052320767

sequential_1/dense_5/BiasAdd/ReadVariableOp f4 [8]
0	0x3cddf807	0.027095808
1	0x3ad309a8	0.00161009
2	0xbd3d58d9	-0.04622731
3	0x3ea9156a	0.3302415
4	0xbbb29595	-0.0054499605
5	0x3d5ef17a	0.05442951
6	0xbd9987de	-0.07496618
7	0x00000000	0.0

sequential_1/dense_4/BiasAdd/ReadVariableOp f4 [12]
0	0xbdcfe00e	-0.10150157
1	0x3e2e331d	0.17011686
2	0x00000000	0.0
3	0x3ce0b0cc	0.027428053
4	0x3d89aa3d	0.067219235
5	0x3ca36863	0.019947236
6	0x3d81e362	0.06342198
7	0x3ea44380	0.32082748
8	0x3e80b349	0.25136784
9	0x3e828bb4	0.2549721
10	0xbcf37315	-0.029717961
11	0x3dbfa30c	0.093572706

sequential_1/dense_4/MatMul f4 [12, 8]
0	0x3ed47fb9	0.41503695
1	0xbe899d64	-0.26877892
2	0xbe9c9135	-0.30579534
3	0xbe9b7b0b	-0.30367312
4	0x3d8352b9	0.064122625
5	0x3e3aae7b	0.18230622
6	0x3ea93fad	0.33056393
7	0xbee4f887	-0.4472086
8	0xbe2ec2a6	-0.1706644
9	0x3f37943c	0.7171056
10	0xbd6b5be7	-0.05746069
11	0xbdd3c25d	-0.10339806
12	0x3e9e5f4b	0.30932078
13	0x3ebfa818	0.37432933
14	0xbd8c2738	-0.06843418
15	0x3f2818d4	0.65662885
16	0xbe1edaa8	-0.15513098
17	0xbec9a6fc	-0.3938521
18	0xbeb8e379	-0.36111048
19	0xbea8aa26	-0.32942313
20	0xbe1f1e8a	-0.15538993
21	0xbe8f65a7	-0.28007242
22	0xbe3e403c	-0.18579191
23	0x3da37b90	0.07982552
24	0xbdc040a5	-0.0938733
25	0x3f3ef4e2	0.7459241
26	0xbd09cd98	-0.033643335
27	0x3e814a89	0.25252178
28	0xbe84dc11	-0.25949147
29	0x3e8eb8e0	0.27875423
30	0x3e39f0f8	0.18158329
31	0xbe9c9e0a	-0.30589324
32	0x3e390bf1	0.18070962
33	0xbf2aac1d	-0.66668874
34	0x3de830d5	0.11337439
35	0x3f203a8f	0.62589353
36	0x3f217a73	0.6307747
37	0x3ec6f4ce	0.38858646
38	0xbd062b5d	-0.0327562
39	0x3ebda4ed	0.3703989
40	0x3efbb1a4	0.49158967
41	0xbe544deb	-0.20732848
42	0x3f135bd8	0.5756202
43	0x3c926ca8	0.017874077
44	0x3eae6c7e	0.34067148
45	0xbeda4e09	-0.4263766
46	0x3e7e3ed5	0.24828656
47	0x3eeb19d5	0.45918146
48	0x3eb2a4c5	0.34891334
49	0x3f793f2b	0.9736201
50	0xbee0368d	-0.4379162
51	0x3e5960b4	0.21228296
52	0x3ebc71a1	0.36805442
53	0x3e16e615	0.14736207
54	0xbe78bf78	-0.2429179
55	0x3c99eace	0.018788721
56	0x3ed4e4a6	0.41580695
57	0xbba74c4b	-0.0051055304
58	0x3e8c76fb	0.27434525
59	0xbee65c2e	-0.44992203
60	0xbee5a5de	-0.4485311
61	0x3e9843d6	0.29739255
62	0x3de1d30b	0.110265814
63	0x3f416902	0.75550854
64	0xbd0e74e5	-0.034779448
65	0xbe839472	-0.25699192
66	0xbea57f90	-0.32323885
67	0xbe18eee0	-0.14934874
68	0xbeb4c78f	-0.353085
69	0x3e3a6be6	0.18205222
70	0x3e32acd7	0.17448746
71	0x3f3b1559	0.7307945
72	0x3e084ad4	0.13309795
73	0xbf0bde6d	-0.5463627
74	0xbe8fcf8d	-0.28088036
75	0xbda4cb3b	-0.08046576
76	0x3ed88170	0.42286253
77	0x3f122d0d	0.5709999
78	0xbde6cbaf	-0.11269318
79	0xbd096a9d	-0.03354894
80	0xbe7d8eac	-0.24761456
81	0x3eb65784	0.35613644
82	0xbd617817	-0.055046167
83	0xbe25faf4	-0.16209012
84	0xbdc8573e	-0.09782265
85	0x3eff8957	0.4990947
86	0xbd658921	-0.05603898
87	0xbe9bdc61	-0.30441573
88	0x3b075af5	0.002065358
89	0x3e306a45	0.17228039
90	0x3ea7f431	0.3280349
91	0xbdaa83d2	-0.08325924
92	0x3eef0033	0.4667984
93	0xbea8b5ea	-0.3295129
94	0x3e8103e2	0.25198275
95	0x3d407233	0.04698391

sequential_1/dense_5/MatMul f4 [8, 12]
0	0xbf00e5cf	-0.5035066
1	0xbda827ac	-0.08210692
2	0x3dcea0d0	0.10089266
3	0x3f4e4004	0.8056643
4	0x3e92a9cd	0.28645173
5	0x3f0fc34e	0.56157386
6	0xbdca2c0e	-0.09871684
7	0xbece0e98	-0.4024551
8	0xbf492286	-0.78568304
9	0x3d42c79d	0.047553647
10	0x3ef0117b	0.46888337
11	0x3ee8ea6f	0.4549136
12	0xbedde54c	-0.43339002
13	0xbeea5b71	-0.4577289
14	0xbe37ee2e	-0.17961952
15	0xbf171101	-0.5901032
16	0x3efa8e2d	0.48936597
17	0x3e1a4499	0.1506523
18	0xbf0a5a5b	-0.5404412
19	0xbe947503	-0.28995523
20	0xbea5107e	-0.32239145
21	0xbf7db434	-0.99103093
22	0x3eb5feb8	0.35545897
23	0x3e3da260	0.18518972
24	0x3e9482b0	0.29005957
25	0x3eae2567	0.3401291
26	0x3f00926e	0.50223434
27	0x3d1f76d6	0.03893169
28	0xbef8aad3	-0.4856783
29	0x3ee92ac8	0.45540452
30	0x3e41aa3a	0.18912593
31	0x3d5b0b14	0.05347736
32	0xbc8ede77	-0.017440064
33	0xbee5bff1	-0.44873002
34	0x3e37471e	0.17898223
35	0x3e3772e1	0.17914917
36	0xbed63342	-0.41835982
37	0x3eae65df	0.34062096
38	0x3eb1594f	0.3463845
39	0xbf405043	-0.7512247
40	0x3d788177	0.060670342
41	0x3e29e362	0.16590646
42	0x3c99cec0	0.018775344
43	0x3f82b48e	1.0211351
44	0x3f24173c	0.6409795
45	0x3cf44bc1	0.029821279
46	0x3ed2ace1	0.4114752
47	0x3e1babb1	0.15202214
48	0xbe94813c	-0.29004848
49	0xbf0e7eaf	-0.55662054
50	0xbc5bd180	-0.013416648
51	0xbf00b55f	-0.5027675
52	0x3f12323f	0.5710792
53	0x3d1e6b5f	0.038676616
54	0xbf43565b	-0.76303643
55	0x3eda2332	0.42604977
56	0x3f0374c9	0.51350075
57	0x3f2d736e	0.67754257
58	0xbe943bcf	-0.2895188
59	0xbe55d565	-0.20882185
60	0x3eaa3885	0.33246246
61	0xbe640ddf	-0.22270916
62	0x3edeb07b	0.4349402
63	0xbe408a7b	-0.18802826
64	0xbc82d878	-0.015972361
65	0x3f242406	0.6411747
66	0xbe8a5834	-0.2702042
67	0xbd1dc7ce	-0.038520627
68	0x3eeb66cb	0.45976862
69	0xbf1372e8	-0.5759721
70	0x3e98044d	0.2969078
71	0x3f262420	0.6489887
72	0x3c9aa699	0.018878268
73	0x3e98422b	0.29737982
74	0x3e8bf31c	0.27333915
75	0xbe611c52	-0.2198346
76	0xbedb02c5	-0.4277555
77	0xbe9c730e	-0.3055653
78	0xbf10b1a4	-0.5652106
79	0x3db2071a	0.08692761
80	0xbde54287	-0.1119433
81	0x3e301dcd	0.17198868
82	0xbc8dd18d	-0.017311836
83	0xbe89af07	-0.26891348
84	0x3e3b5af0	0.18296409
85	0x3e33ff18	0.1757778
86	0xbeec3aa8	-0.461385
87	0x3e23d7cc	0.16000289
88	0xbea70618	-0.32621837
89	0xbddecce6	-0.10878925
90	0x3d831128	0.06399757
91	0xbf0a5f4e	-0.54051673
92	0x3e934592	0.28764015
93	0x3ec5f596	0.3866393
94	0xbe90a51d	-0.2825097
95	0xbef20b82	-0.47274405

sequential_1/dense_6/MatMul f4 [8, 8]
0	0xbe85e3ac	-0.26150262
1	0x3e35d292	0.17756107
2	0x3efb9a77	0.49141285
3	0xbf275217	-0.65359634
4	0x3e54c1a4	0.20776993
5	0x3eaaec6b	0.33383498
6	0x3f0ac617	0.5420851
7	0x3e646df8	0.22307575
8	0x3e8f2250	0.27955866
9	0x3f047dc7	0.5175442
10	0xbe5588db	-0.20852987
11	0xbf154738	-0.58311796
12	0x3f00c7d1	0.50304896
13	0x3f256c56	0.6461843
14	0x3e23a843	0.15982156
15	0x3e566858	0.20938241
16	0x3f08a6df	0.53379625
17	0x3ec8e86c	0.39239824
18	0x3efddb97	0.49581596
19	0xbf3f72cc	-0.7478454
20	0x3e6466eb	0.22304885
21	0x3eaa6725	0.33281818
22	0x3e3cd824	0.18441826
23	0xbe6c8e0a	-0.23101059
24	0x3e209d8c	0.156851
25	0xbf2a919d	-0.6662844
26	0x3f0607e2	0.5235578
27	0x3e9a1aae	0.3009848
28	0xbf535e8e	-0.82566154
29	0x3ea60655	0.32426706
30	0xbc9c40e1	-0.019073905
31	0x3e83389d	0.2562913
32	0x3efa983d	0.48944274
33	0xbe372583	-0.17885403
34	0x3eabf3cb	0.33584437
35	0xbdbcf29d	-0.09225962
36	0xbe27ea92	-0.16398075
37	0xbd537875	-0.05162855
38	0x3ed16ea7	0.40904734
39	0xbec666c1	-0.3875027
40	0xbdd5b676	-0.10435192
41	0xbe64d8e4	-0.22348362
42	0x3e56896e	0.20950863
43	0x3f93444a	1.1505215
44	0x3cb8aeba	0.022544254
45	0x3f12097e	0.57045734
46	0x3e83cd10	0.25742388
47	0x3e8a80f6	0.27051514
48	0x3eb9e510	0.36307573
49	0xbec5e55a	-0.38651544
50	0xbe7ab3bd	-0.24482627
51	0xbe798e96	-0.24370798
52	0xbe969d19	-0.2941673
53	0x3e84bebf	0.25926778
54	0x3e2892d9	0.16462268
55	0xbe8cd808	-0.2750857
56	0xbe495290	-0.19660401
57	0xbee0daac	-0.43916833
58	0xbf07178a	-0.5277029
59	0x3e1021a7	0.14075337
60	0x3f41c0c1	0.75684744
61	0xbdd9d8e4	-0.10637072
62	0xbede5ff8	-0.43432593
63	0xbe865969	-0.2624009

sequential_1/dense_7/MatMul f4 [3, 8]
0	0xbf1897fd	-0.59606916
1	0x3c58af1c	0.013225343
2	0x3e470bc9	0.1943809
3	0xbf8ee741	-1.1164323
4	0xbef234ad	-0.47305813
5	0x3f586479	0.8452831
6	0xbec251a0	-0.379529
7	0x3ed3706d	0.41296712
8	0x3d5dee1b	0.054182153
9	0xbf891114	-1.0708337
10	0xbd9eab6d	-0.077475406
11	0x3ef68a2b	0.4815229
12	0xbf155cee	-0.58344924
13	0x3f55ead3	0.8356144
14	0xbf6ef231	-0.93338305
15	0xbf3b985d	-0.7327936
16	0x3e83fed1	0.25780347
17	0xbf197335	-0.59941417
18	0x3ee72bbc	0.45150554
19	0xbdb5ffd6	-0.088866875
20	0x3efca693	0.49345836
21	0xbdbcb8e7	-0.09214955
22	0x3ed42a49	0.4143851
23	0x3e006f07	0.12542354
